…
    \ -inf -inf -inf -inf]], [[inf inf inf inf inf inf]\n [inf inf inf inf inf inf]\n\
    \ [inf inf inf inf inf inf]\n [inf inf inf inf inf inf]\n [inf inf inf inf inf\
    \ inf]\n [inf inf inf inf inf inf]\n [inf inf inf inf inf inf]\n [inf inf inf\
    \ inf inf inf]\n [inf inf inf inf inf inf]\n [inf inf inf inf inf inf]\n [inf\
    \ inf inf inf inf inf]\n [inf inf inf inf inf inf]], (12, 6), float64)"
optimize_memory_usage:
  desc: null
  value: 'False'
policy:
  desc: null
  value: "DQNPolicy(\n  (q_net): QNetwork(\n    (features_extractor): FlattenExtractor(\n\
    \      (flatten): Flatten(start_dim=1, end_dim=-1)\n    )\n    (q_net): Sequential(\n\
    \      (0): Linear(in_features=72, out_features=64, bias=True)\n      (1): ReLU()\n\
    \      (2): Linear(in_features=64, out_features=64, bias=True)\n      (3): ReLU()\n\
    \      (4): Linear(in_features=64, out_features=2, bias=True)\n    )\n  )\n  (q_net_target):\
    \ QNetwork(\n    (features_extractor): FlattenExtractor(\n      (flatten): Flatten(start_dim=1,\
    \ end_dim=-1)\n    )\n    (q_net): Sequential(\n      (0): Linear(in_features=72,\
    \ out_features=64, bias=True)\n      (1): ReLU()\n      (2): Linear(in_features=64,\
    \ out_features=64, bias=True)\n      (3): ReLU()\n      (4): Linear(in_features=64,\
    \ out_features=2, bias=True)\n    )\n  )\n)"
policy_class:
  desc: null
  value: <class 'stable_baselines3.dqn.policies.DQNPolicy'>
policy_kwargs:
  desc: null
  value: '{}'
policy_type:
  desc: null
  value: MlpPolicy
q_net:
  desc: null
  value: "QNetwork(\n  (features_extractor): FlattenExtractor(\n    (flatten): Flatten(start_dim=1,\
    \ end_dim=-1)\n  )\n  (q_net): Sequential(\n    (0): Linear(in_features=72, out_features=64,\
    \ bias=True)\n    (1): ReLU()\n    (2): Linear(in_features=64, out_features=64,\
    \ bias=True)\n    (3): ReLU()\n    (4): Linear(in_features=64, out_features=2,\
    \ bias=True)\n  )\n)"
q_net_target:
  desc: null
  value: "QNetwork(\n  (features_extractor): FlattenExtractor(\n    (flatten): Flatten(start_dim=1,\
    \ end_dim=-1)\n  )\n  (q_net): Sequential(\n    (0): Linear(in_features=72, out_features=64,\
    \ bias=True)\n    (1): ReLU()\n    (2): Linear(in_features=64, out_features=64,\
    \ bias=True)\n    (3): ReLU()\n    (4): Linear(in_features=64, out_features=2,\
    \ bias=True)\n  )\n)"
replay_buffer:
  desc: null
  value: <stable_baselines3.common.buffers.ReplayBuffer object at 0x150d86820>
replay_buffer_class:
  desc: null
  value: <class 'stable_baselines3.common.buffers.ReplayBuffer'>
replay_buffer_kwargs:
  desc: null
  value: '{}'
sde_sample_freq:
  desc: null
  value: -1
seed:
  desc: null
  value: None
start_time:
…
