…
 inf inf]\n [inf inf inf inf inf inf]\n [inf inf inf inf inf inf]\n [inf inf inf inf inf inf]\n [inf inf inf inf inf inf]\n [inf inf inf inf inf inf]\n [inf inf inf inf inf inf]], (12, 6), float64)', 'action_space': 'Discrete(2)', 'n_envs': 1, 'num_timesteps': 0, '_total_timesteps': 1000000, '_num_timesteps_at_start': 0, 'eval_env': 'None', 'seed': 'None', 'action_noise': 'None', 'start_time': 1672867741922061000, 'policy': 'DQNPolicy(\n  (q_net): QNetwork(\n    (features_extractor): FlattenExtractor(\n      (flatten): Flatten(start_dim=1, end_dim=-1)\n    )\n    (q_net): Sequential(\n      (0): Linear(in_features=72, out_features=64, bias=True)\n      (1): ReLU()\n      (2): Linear(in_features=64, out_features=64, bias=True)\n      (3): ReLU()\n      (4): Linear(in_features=64, out_features=2, bias=True)\n    )\n  )\n  (q_net_target): QNetwork(\n    (features_extractor): FlattenExtractor(\n      (flatten): Flatten(start_dim=1, end_dim=-1)\n    )\n    (q_net): Sequential(\n      (0): Linear(in_features=72, out_features=64, bias=True)\n      (1): ReLU()\n      (2): Linear(in_features=64, out_features=64, bias=True)\n      (3): ReLU()\n      (4): Linear(in_features=64, out_features=2, bias=True)\n    )\n  )\n)', 'learning_rate': 0.0001, 'tensorboard_log': 'runs/1qh0xq5s', 'lr_schedule': '<function constant_fn.<locals>.func at 0x1509368b0>', '_last_obs': '[[[7.19100e+03 1.09590e+05 0.00000e+00 0.00000e+00 1.00000e+00\n   0.00000e+00]\n  [7.18405e+03 3.81630e+04 0.00000e+00 0.00000e+00 1.00000e+00\n   0.00000e+00]\n  [7.19500e+03 4.28060e+04 0.0000
…
cy=4, unit=<TrainFrequencyUnit.STEP: 'step'>)", 'actor': 'None', 'replay_buffer': '<stable_baselines3.common.buffers.ReplayBuffer object at 0x150d86820>', 'use_sde_at_warmup': 'False', 'exploration_initial_eps': 1.0, 'exploration_final_eps': 0.05, 'exploration_fraction': 0.1, 'target_update_interval': 10000, '_n_calls': 0, 'max_grad_norm': 10, 'exploration_rate': 0.0, 'exploration_schedule': '<function get_linear_fn.<locals>.func at 0x150936310>', 'q_net': 'QNetwork(\n  (features_extractor): FlattenExtractor(\n    (flatten): Flatten(start_dim=1, end_dim=-1)\n  )\n  (q_net): Sequential(\n    (0): Linear(in_features=72, out_features=64, bias=True)\n    (1): ReLU()\n    (2): Linear(in_features=64, out_features=64, bias=True)\n    (3): ReLU()\n    (4): Linear(in_features=64, out_features=2, bias=True)\n  )\n)', 'q_net_target': 'QNetwork(\n  (features_extractor): FlattenExtractor(\n    (flatten): Flatten(start_dim=1, end_dim=-1)\n  )\n  (q_net): Sequential(\n    (0): Linear(in_features=72, out_features=64, bias=True)\n    (1): ReLU()\n    (2): Linear(in_features=64, out_features=64, bias=True)\n    (3): ReLU()\n    (4): Linear(in_features=64, out_features=2, bias=True)\n  )\n)', 'batch_norm_stats': '[]', 'batch_norm_stats_target': '[]'}
2023-01-04 14:33:23,460 INFO    MainThread:2923 [sb3.py:save_model():149] Saving model checkpoint to models/1qh0xq5s/model.zip
2023-01-04 14:33:23,461 INFO    MainThread:2923 [wandb_run.py:_finish():1753] finishing run full-metal/sb3-DQN/1qh0xq5s
2023-01-04 14:33:23,461 INFO    MainThread:2923 [wandb_run.py:_atexit_cleanup():1955] got exitcode: 0
…
