…
 inf inf]\n [inf inf inf inf inf inf]\n [inf inf inf inf inf inf]\n [inf inf inf inf inf inf]\n [inf inf inf inf inf inf]\n [inf inf inf inf inf inf]\n [inf inf inf inf inf inf]], (12, 6), float64)', 'action_space': 'Discrete(2)', 'n_envs': 1, 'num_timesteps': 0, '_total_timesteps': 1000000, '_num_timesteps_at_start': 0, 'eval_env': 'None', 'seed': 'None', 'action_noise': 'None', 'start_time': 1673036294635564000, 'policy': 'DQNPolicy(\n  (q_net): QNetwork(\n    (features_extractor): FlattenExtractor(\n      (flatten): Flatten(start_dim=1, end_dim=-1)\n    )\n    (q_net): Sequential(\n      (0): Linear(in_features=72, out_features=64, bias=True)\n      (1): ReLU()\n      (2): Linear(in_features=64, out_features=64, bias=True)\n      (3): ReLU()\n      (4): Linear(in_features=64, out_features=2, bias=True)\n    )\n  )\n  (q_net_target): QNetwork(\n    (features_extractor): FlattenExtractor(\n      (flatten): Flatten(start_dim=1, end_dim=-1)\n    )\n    (q_net): Sequential(\n      (0): Linear(in_features=72, out_features=64, bias=True)\n      (1): ReLU()\n      (2): Linear(in_features=64, out_features=64, bias=True)\n      (3): ReLU()\n      (4): Linear(in_features=64, out_features=2, bias=True)\n    )\n  )\n)', 'learning_rate': 0.0001, 'tensorboard_log': 'runs/3bj57dmc', 'lr_schedule': '<function constant_fn.<locals>.func at 0x2994fb280>', '_last_obs': '[[[ 1.03201192e+01  7.78750090e+07  0.00000000e+00  0.00000000e+00\n    1.00000000e+00  1.00000000e+00]\n  [ 1.04525269e+01  9.66029360e+07  0.00000000e+00  0.00000000e+00\n    1.00000000e+00  0.
…
cy=4, unit=<TrainFrequencyUnit.STEP: 'step'>)", 'actor': 'None', 'replay_buffer': '<stable_baselines3.common.buffers.ReplayBuffer object at 0x2a5bd2df0>', 'use_sde_at_warmup': 'False', 'exploration_initial_eps': 1.0, 'exploration_final_eps': 0.05, 'exploration_fraction': 0.1, 'target_update_interval': 10000, '_n_calls': 0, 'max_grad_norm': 10, 'exploration_rate': 0.0, 'exploration_schedule': '<function get_linear_fn.<locals>.func at 0x2994fb700>', 'q_net': 'QNetwork(\n  (features_extractor): FlattenExtractor(\n    (flatten): Flatten(start_dim=1, end_dim=-1)\n  )\n  (q_net): Sequential(\n    (0): Linear(in_features=72, out_features=64, bias=True)\n    (1): ReLU()\n    (2): Linear(in_features=64, out_features=64, bias=True)\n    (3): ReLU()\n    (4): Linear(in_features=64, out_features=2, bias=True)\n  )\n)', 'q_net_target': 'QNetwork(\n  (features_extractor): FlattenExtractor(\n    (flatten): Flatten(start_dim=1, end_dim=-1)\n  )\n  (q_net): Sequential(\n    (0): Linear(in_features=72, out_features=64, bias=True)\n    (1): ReLU()\n    (2): Linear(in_features=64, out_features=64, bias=True)\n    (3): ReLU()\n    (4): Linear(in_features=64, out_features=2, bias=True)\n  )\n)', 'batch_norm_stats': '[]', 'batch_norm_stats_target': '[]'}
2023-01-06 13:22:08,283 INFO    MainThread:18600 [sb3.py:save_model():149] Saving model checkpoint to models/3bj57dmc/model.zip
2023-01-06 13:22:08,284 INFO    MainThread:18600 [wandb_run.py:_finish():1753] finishing run full-metal/sb3/3bj57dmc
2023-01-06 13:22:08,298 INFO    MainThread:18600 [jupyter.py:save_history():477] saving 92 cells to _session_history.ipynb
…
